Data/parameters_best.npz (npz, 2373 bytes, 2 tensors)

Theta1 f8 [11, 12]
-0.03619813208367488 0.19278665257731972 -0.11143941713544903 0.4549969488099555 1.9732460768200633 0.5645241805497799 -0.20855593433982322 -0.06728424658649729
0.2260710535975577 10.910307753024718 0.06803683459572304 -11.351338813895158 1.0423945299478676 -0.34441472564521913 0.2552830586717444 -0.36474352912128016
1.4601870697426234 -0.1434013067434958 -0.38280674584940716 0.5717747654958303 0.3951178089257814 1.3089257614655323 -0.4147125929437237 0.9623025220750295
3.803008836673148 0.7704228880536921 -4.863575914663227 0.3678945801298761 -0.22165568170375466 1.337783297633413 0.41702366674443014 -5.677990245667478
0.14877614130126238 0.17136117419457322 -0.35052535510264876 -0.18890872857477609 1.0843441306630472 -0.13085040118789956 -0.9962244742986397 -0.244356167713282
0.4370320068136703 -0.33930146631704367 -0.7238669418093907 1.0503154913504182 -0.5101470229715849 -0.20072042741014617 1.117028192402945 -0.0716203893045493
0.4133143704514046 1.1980864179858062 0.07459832382085425 0.9046104593081018 0.42217179862555576 -0.6724022402078575 -0.2608290774177635 -0.1307514836208905
-0.09422507579517199 0.15321945278859003 -0.27401376633364716 -0.0484365839881049 1.0817381328556583 0.49612321102208484 0.18982958453116416 0.3732336944683001
0.7517033136155378 0.7771504961261613 -0.8020623495612753 0.3196661755918537 -1.0025378990356077 -0.16852756080047684 1.0194904758905534 -0.1845195695728222
0.13508961725103633 -0.2508891564850332 -0.05750222546854095 0.4951671497657827 -0.07363733339092528 0.4351958632093403 -0.15871784260548175 -0.09695740251859936
-0.008577678388663502 0.07269424818938527 -0.25632578953779256 -0.062306717031051916 -0.19144523362562108 -0.5258702606291578 -0.6804805762703926 -0.6579827598314942
0.05039873399609164 -0.3047019734493041 0.06944551291917837 0.32029445032495163 -0.5091432628938957 -0.4370577289942018 0.16703760806908843 -0.39642659785263623
-0.03757261999783775 0.5752433725430445 0.04572573935442769 -0.03003481252259645 0.12636168080990592 -0.5555092871562547 0.4354209110652794 -0.0027135625316960545
-0.2870393506927719 -0.13079098952590837 0.020495491478205213 0.07599478197108596 -1.0156015409610313 0.8191787493711101 0.05093170125366818 -0.9618160975296334
0.0157671946397903 0.5605424382527053 -0.8577086482970865 -0.5145743645327784 -1.2298617586246066 -0.037844870139914936 0.39617600419839655 -0.03881906551179671
-0.5163974824182428 0.8260789771379244 1.3050729405425274 -0.9024384122174735 -1.095243835766091 -0.24768112820634555 1.007076291369601 -1.0291953892299999
1.452482860372788 -0.7485341819097652 -1.4372475669905886 -0.5213688750178519
00000000: 468b f3c2 8f88 a2bf 3363 f6a7 3bad c83f
00000010: 9801 152c 4b87 bcbf 71c9 ba85 ab1e dd3f
00000020: 8a70 6e7a 6a92 ff3f 6f66 a803 9510 e23f
00000030: 6c29 b0fa f5b1 cabf 5c00 a056 8a39 b1bf
00000040: 020b e372 e5ef cc3f a412 99db 13d2 2540
00000050: e611 83ab dc6a b13f 82fd 56ae e2b3 26c0
00000060: 747c fae2 a5ad f03f c20c ba0f e40a d6bf
00000070: 92f3 0dc1 8e56 d03f b439 403e f557 d7bf
00000080: df62 e91d ed5c f73f 8f5f 5559 f95a c2bf
00000090: f920 87dd e77f d8bf f471 cf97 fa4b e23f
000000a0: 70d1 d934 9c49 d93f 862e a623 5cf1 f43f
000000b0: 99b0 fbaf a68a dabf 4f75 a5a8 2ecb ee3f
000000c0: 0a48 9fe5 8f6c 0e40 aaf9 88e6 4da7 e83f
000000d0: 0d5e 9c3e 4d74 13c0 5c24 82b5 958b d73f
000000e0: 76f2 f19f 365f ccbf 5887 8775 8f67 f53f
000000f0: 36d2 9408 84b0 da3f 6598 3013 43b6 16c0
00000100: 0c31 a8ba 180b c33f 1524 7cb7 29ef c53f
00000110: 1f6b 25e6 016f d6bf 5e2c 9445 292e c8bf
00000120: dcea 2c3b 7959 f13f 03a0 e2b8 b4bf c0bf
00000130: 64cc 1226 12e1 efbf 9ac4 731a 1047 cfbf
00000140: 477a 2418 55f8 db3f 5342 547f 1db7 d5bf
00000150: 8142 3701 eb29 e7bf c350 dd9d 17ce f03f
00000160: 2b12 7ad9 1f53 e0bf e8cf aefb 34b1 c9bf
00000170: 524a 31f4 58df f13f 2132 cabd b655 b2bf
00000180: 248f 031e be73 da3f 417e f0a9 5c2b f33f
00000190: eda0 2531 e018 b33f 7921 4ba2 91f2 ec3f
000001a0: 04fa 18dd dc04 db3f 7465 eeb3 5184 e5bf
000001b0: b8ba 5671 6cb1 d0bf f010 07f1 76bc c0bf
000001c0: d5dd 0073 221f b8bf eb43 6bed b19c c33f
000001d0: 9ea2 4309 7189 d1bf 1f57 5110 aecc a8bf
000001e0: ef37 f7a4 cc4e f13f 4d16 8891 7bc0 df3f
000001f0: 78f3 aff8 554c c83f 386c e093 0fe3 d73f
00000200: 0ec1 881b f40d e83f 40d3 9db7 6ade e83f
00000210: c0fe 16a9 7eaa e9bf 5f7b 731e 6975 d43f
00000220: 5bbc 152e 650a f0bf f16c 0ea5 4f92 c5bf
00000230: d288 c83e d54f f03f 33c5 6456 569e c7bf
00000240: 71a9 0fd8 9d4a c13f 368d 8164 910e d0bf
00000250: e950 ab83 ee70 adbf 660b 938e d1b0 df3f
00000260: 81bd ad72 e5d9 b2bf b9ab f5bf 3fda db3f
00000270: c51f a4c3 dd50 c4bf 7428 ec48 33d2 b8bf
00000280: 7444 3d81 2c91 81bf dea9 941a 179c b23f
00000290: abea cb48 a467 d0bf 8b61 f07f aae6 afbf
000002a0: e5d4 b204 4781 c8bf 59eb 6ade edd3 e0bf
000002b0: 51a0 9433 7fc6 e5bf e0db 59dc 310e e5bf
000002c0: e2c8 8be4 dccd a93f 7373 bfb4 3c80 d3bf
000002d0: 4b81 d75e 2ec7 b13f 081a 4f4b b47f d43f
000002e0: d674 e3cf e64a e0bf ca9f 1ffb c0f8 dbbf
000002f0: 2ded ed03 7d61 c53f d8a9 42aa 0d5f d9bf
00000300: 6b43 3bec b73c a3bf 1505 0aca 6468 e23f
00000310: 1fb2 3936 5d69 a73f 05ab 1a26 72c1 9ebf
00000320: cfe7 459b 9e2c c03f 7dbb 9e69 bbc6 e1bf
00000330: 0946 41ab efdd db3f c881 89ca c03a 66bf
00000340: 73fe f84b da5e d2bf 5b08 5057 c2bd c0bf
00000350: 0b15 7526 c5fc 943f cd82 3bdf 6474 b33f
00000360: 0a1e c366 e73f f0bf 3111 445a b636 ea3f
00000370: aea4 6d4e b813 aa3f f3fe 748d 32c7 eebf
00000380: 6b6d 4f85 4625 903f 5218 0ab2 f6ef e13f
00000390: d5d5 3d68 5972 ebbf 8de7 60a8 6477 e0bf
000003a0: b94c fe85 83ad f3bf b704 251f 6760 a3bf
000003b0: 1b7e 5f99 f25a d93f d13c abb1 17e0 a3bf
000003c0: 8923 5703 5486 e0bf 7a0e d72d 3d6f ea3f
000003d0: 3465 e829 94e1 f43f 571a 6485 c6e0 ecbf
000003e0: e02c 7c66 1e86 f1bf 0fc7 bde4 03b4 cfbf
000003f0: 8426 8007 fc1c f03f 4cfd 9e95 9577 f0bf
00000400: 98d3 f4aa 5e3d f73f a3b2 e7f4 fdf3 e7bf
00000410: afae 074e f7fe f6bf d953 6bc7 0daf e0bf

Theta2 f8 [13, 1]
-1.841414438301619 1.160705228421992 3.240194494584616 -0.09479793768776533 -0.43461327174396774 0.6223134811876425 1.2174653647005325 -3.8798001957316237
1.9527201414905204 -6.193413006753776 -0.8014214238434811 -6.28509110304533 1.1478603528686013
00000000: df33 6efc 6e76 fdbf 0ee6 45a5 3f92 f23f
00000010: 855c 5717 ebeb 0940 f7e1 187a ad44 b8bf
00000020: d510 232f b4d0 dbbf 5ef2 31f6 fde9 e33f
00000030: 8b6c 56f6 bc7a f33f 2b74 5daf d409 0fc0
00000040: 9213 9f79 573e ff3f 9483 2a0f 0ec6 18c0
00000050: 9416 b78a 3ea5 e9bf 4ed7 0fec ee23 19c0
00000060: 6f21 3fd1 a25d f23f
