Data/parameters.npz (npz, 2353 bytes, 2 tensors)

Theta1 f8 [11, 12]
-0.010429473953920581 0.461194549713723 -20.314909738282424 -0.07955642694145885 0.9137050403168765 0.005772868283804149 0.21208142131878574 -21.228039361338364
0.17157745602764646 0.9564450221412447 -0.050054223180222596 0.5802005110402041 -0.1633566374463726 0.5691615205781227 -4.566871435974129 -0.6393896275170936
1.4015241291999274 -0.8084406287357634 -0.6764708558610796 5.5457419117109605 -0.06628970400239399 1.558406991966117 0.3640749100525947 -2.2951350611162527
-0.0019070362571855255 0.167138960761612 -0.1645955441562724 0.7684654529081644 0.06793042201602839 -0.2369707532473332 16.207844067766757 -0.1293935326562806
16.55047308667603 0.042730571389479416 -0.3164366041267467 0.12279168178833338 0.10496117859620208 -0.4516489527127458 -0.08174520698234125 -0.2820508542548607
1.4695658822357043 0.8658015735674289 3.246596889578186 -0.022261535944331095 -3.6851529567263235 -0.16219615179629054 1.0531244524534118 -1.3451268800279215
4.014996444021543 -1.4093386712156006 0.10485672195163595 0.5754204754909956 0.055269579022217526 -1.5358883224362603 0.18804068845109054 0.11840806718328353
0.16693307468378585 0.26288747902954657 0.33329661906186975 -0.27814828489109034 -0.23716110659881862 0.7903600135644977 0.5279373456606987 -0.6384589457552724
-1.0335546381268368 1.0153435631320495 -0.3962018865574678 -0.5593980782103631 0.52084676723273 -1.868546511208119 -0.6030559757557828 3.1081403429640657
0.10502952257485881 -0.11339010614083306 -0.09992379783804194 -0.28051826706208577 -0.0647960048989299 -0.06606674968422724 -0.00026420000314896505 -0.1494817804313072
0.046645011188861024 -0.0031456418545933455 0.0771842353190483 -0.04620690884155026 -0.027052023232712538 -0.7857780988227349 0.33372591327833623 0.16772517312814852
-1.2820719844676973 0.16831931948133305 -0.09577651485825107 -0.5799538004665182 0.07728786377291894 -0.8836470636148812 -0.6432261504650446 1.2660521899280015
-0.07200587230058156 -0.06329770677296646 -0.08929505826142652 0.11737104282176303 0.13407451555758282 0.040021298964472034 0.05649946823403587 0.022679783377271716
0.06988627422331244 -0.15132932952952455 -0.1598984066216606 -0.06884869314579986 -0.5014476902859418 0.1510497347715306 0.13653601058146614 -1.7701646892162848
-0.3861734304571637 0.4731247081562982 -0.132332909224051 -0.3201863481172347 0.5508554284916214 0.12663252282783027 -1.1147497310694678 0.8379027824583222
-1.363119609154408 -0.7564392690796268 1.4377254922722775 0.5332914639404969 -0.3193982678842518 -1.6046534281862488 -1.378080579449388 -1.0652111895873864
0.8589078365624435 0.1640084708638403 -0.03735188199500769 -1.342438655379789
00000000: 8361 5f4c 0c5c 85bf ea49 0725 3684 dd3f
00000010: 6c1d b3ec 9d50 34c0 2372 e65b cf5d b4bf
00000020: 3a3e 4b5a 123d ed3f 5297 ba87 4aa5 773f
00000030: 05a2 53e8 7b25 cb3f 2526 9fc9 603a 35c0
00000040: b24f 2f05 40f6 c53f b798 5097 329b ee3f
00000050: 44e6 2b07 b5a0 a9bf 0549 81a9 0091 e23f
00000060: 6756 b5cb dee8 c4bf 15ca a038 9236 e23f
00000070: 882e 1af2 7944 12c0 1ecd 723c e175 e4bf
00000080: 407f b790 a46c f63f 63b0 a5e1 bede e9bf
00000090: ddda 5335 a6a5 e5bf 9e6b bbf7 d62e 1640
000000a0: 2176 c0ae 5cf8 b0bf a4a2 852b 3cef f83f
000000b0: 1115 fed9 004d d73f 9a2d 5bc5 6f5c 02c0
000000c0: 086b d796 b03e 5fbf fee4 2d39 cf64 c53f
000000d0: 43f8 9b7f 7711 c5bf a915 8bdc 4497 e83f
000000e0: a05a f65c e363 b13f dc23 a7c1 0e55 cebf
000000f0: d0b9 d144 3535 3040 0b4c 899f f78f c0bf
00000100: 0a9a e0cd eb8c 3040 7c7d 500d c8e0 a53f
00000110: c6d3 7e50 7f40 d4bf 6c71 8091 466f bf3f
00000120: fc98 6b5d bcde ba3f 1321 4b02 d1e7 dcbf
00000130: 420a 98fe 40ed b4bf e357 b506 1f0d d2bf
00000140: d850 b883 5783 f73f ac84 6980 a5b4 eb3f
00000150: e144 40ca 07f9 0940 1bc8 5b63 bacb 96bf
00000160: 982d 2f79 317b 0dc0 7445 c0ef d7c2 c4bf
00000170: 277c 9e06 99d9 f03f 090c 6bc3 a385 f5bf
00000180: ea83 523a 5b0f 1040 e1be ddb4 a68c f6bf
00000190: 764c 8cdf e3d7 ba3f d3d7 7533 d869 e23f
000001a0: e16c ba54 4b4c ac3f aec0 32a2 ff92 f8bf
000001b0: 377d 9b9f b711 c83f 8680 22b8 fd4f be3f
000001c0: 699c 3120 105e c53f 2c6d 3d01 26d3 d03f
000001d0: 0b3d af57 bb54 d53f 24ed c276 2ecd d1bf
000001e0: f0cf 5c8e 4b5b cebf 986b 4a15 a14a e93f
000001f0: 5764 3edc dce4 e03f e970 7b74 416e e4bf
00000200: 5e24 9696 7089 f0bf 42b3 5de4 d83e f03f
00000210: 4e2e 5828 5f5b d9bf f67a 6bcc 96e6 e1bf
00000220: a5bd efd6 c6aa e03f ad19 cb06 91e5 fdbf
00000230: 1de9 b00b 3c4c e3bf 6645 23af 78dd 0840
00000240: b4d1 92fc 36e3 ba3f cc99 904d 2207 bdbf
00000250: 2777 ce23 9b94 b9bf 8b95 bde3 02f4 d1bf
00000260: d8cd f391 7896 b0bf 9a2c 3f21 c0e9 b0bf
00000270: 684f 855f 8a50 31bf cb70 260f 3822 c3bf
00000280: e4c9 27db dae1 a73f 4137 7e9c e3c4 69bf
00000290: ea4a 7696 58c2 b33f 87bd a594 6ea8 a7bf
000002a0: 8cef 4c8c 86b3 9bbf 1b6a 8b1c 1825 e9bf
000002b0: 86ec d6ee c35b d53f 2d92 a6ba 0478 c53f
000002c0: 5a81 c6e9 5d83 f4bf d888 3aca 7c8b c53f
000002d0: 0582 0a47 cf84 b8bf 353a c645 fb8e e2bf
000002e0: b64a 482f 23c9 b33f c8d5 ed34 d646 ecbf
000002f0: 2bbd 0502 4f95 e4bf b451 ecf0 bf41 f43f
00000300: aaa4 a612 fa6e b2bf ab6e 804c 4734 b0bf
00000310: b35f ed7a 0adc b6bf 28b9 6a56 070c be3f
00000320: 8eff c58d 5a29 c13f ef45 64f4 ab7d a43f
00000330: 64f7 9c90 7fed ac3f 1e01 8b7f 5e39 973f
00000340: 6379 3a1e 11e4 b13f 0ea1 a06c c25e c3bf
00000350: 76af 8f0d 8d77 c4bf 1efd 6e65 11a0 b1bf
00000360: f7d9 cd06 dc0b e0bf ace3 7403 9955 c33f
00000370: 083c 1612 037a c13f b67c 8b35 9852 fcbf
00000380: 1273 99c3 10b7 d8bf 7d7e 1ddb ac47 de3f
00000390: 8ea2 a6e6 48f0 c0bf 2882 72e1 ee7d d4bf
000003a0: 3242 4690 9ba0 e13f 92e7 1398 7e35 c03f
000003b0: c8b0 62d0 03d6 f1bf 4359 fc7e 19d0 ea3f
000003c0: f8ab dd81 56cf f5bf b36d 4320 c034 e8bf
000003d0: 7cf5 1e72 ec00 f73f 6088 9b42 b910 e13f
000003e0: e98f bd6e 0571 d4bf 6b96 b712 a9ac f9bf
000003f0: 3dce bf38 9e0c f6bf fcc6 69e3 1a0b f1bf
00000400: b70a 8a49 2c7c eb3f e046 50c5 3afe c43f
00000410: eca7 392f c91f a3bf e7e0 9bf4 a07a f5bf

Theta2 f8 [13, 1]
-2.2591127059612464 -1.2274029881738056 9.866901437232274 0.20615259102281558 1.4576374115219661 -1.3249819401962004 -7.953596182387696 -9.805247028930594
8.103049392854034 1.4845302582718356 1.0887024418586213 -2.8049715056761624 -1.6825631667574723
00000000: 27a7 b0ae a912 02c0 b881 d350 71a3 f3bf
00000010: 3989 5381 dabb 2340 34de 3646 3563 ca3f
00000020: 659b 3e9b 7b52 f73f d5ee 4e43 2033 f5bf
00000030: 4dc8 8384 7bd0 1fc0 88ea ac56 499c 23c0
00000040: 895c d8e3 c234 2040 1133 d3cc a2c0 f73f
00000050: dcba 6d40 536b f13f 5cba 98e6 9470 06c0
00000060: 32d7 ea5a c7eb fabf
