Data/parameters_best.npz (npz, 2353 bytes, 2 tensors)

Theta1 f8 [11, 12]
000000 d3 1f 42 9c a8 52 b5 bf 58 f9 11 f9 8f 14 df 3f
       -0.08329252066516739 0.48563002894652163
000010 84 9b 04 1d 93 b8 33 c0 48 6c f7 f3 31 fe b7 bf
       -19.72099477159965 -0.09372245985234529
000020 39 03 05 ab f6 50 ee 3f 0d 25 59 75 b7 04 aa 3f
       0.9473832454897099 0.05081723506425293
000030 3d f0 e2 aa 5a a6 cb 3f 4b ab 17 c2 0f b0 34 c0
       0.216014226380027 -20.68774045064792
000040 3b c1 89 e9 28 4f c8 3f c8 03 fa a2 3a df ed 3f
       0.1899157657931115 0.9334996398102868
000050 16 8a 6e e0 c0 31 b3 bf 7c bf 83 fe 34 ff e5 3f
       -0.07497792701045855 0.6874031992901872
000060 20 3a d7 74 06 e3 e1 bf c8 56 04 9e 05 d3 e0 3f
       -0.5589630395932694 0.5257595144527949
000070 65 75 cf 78 07 4b 11 c0 b6 de d4 03 a2 45 e4 bf
       -4.323270690595881 -0.6335001063188972
000080 32 ac 0f ea b1 0f f6 3f 44 c7 d8 1a 26 b2 ed bf
       1.3788317816750006 -0.9279966854430559
000090 ef c9 30 3b cd 5f e5 bf 8a 74 6d 35 3e 79 14 40
       -0.6679445415559807 5.118401369863145
0000a0 8a 35 fc 86 2c 34 b4 3f e4 41 94 6e 91 48 f9 3f
       0.07892111106430924 1.5802168197152406
0000b0 49 2b 37 42 4e 31 da 3f 15 f4 d7 13 61 1f 02 c0
       0.4092593809734138 -2.2653218794134866
0000c0 4d 11 be bf 5d 61 d6 bf 60 b6 08 75 4d d4 c6 3f
       -0.34969276165818003 0.1783539601760138
0000d0 0a 61 e2 bd ce 28 b4 bf e7 6c 75 7a 1d 5c e9 3f
       -0.07874767433020594 0.7924945251246783
0000e0 d5 19 dd d2 bb 8e bb 3f 0d 2b 92 81 e9 86 d5 bf
       0.10764669321097327 -0.3363593831387995
0000f0 96 32 b6 b3 77 ec 2e 40 88 7c 92 c9 86 6e c2 bf
       15.461850753775519 -0.14399800150292585
000100 a1 d5 a0 ee 7b b0 2f 40 2a 29 52 dd 0c 84 c0 3f
       15.84469552720367 0.12902985388456872
000110 a1 a0 0e ae b8 bc d2 bf ff 31 37 11 31 d2 c1 3f
       -0.29276864049689705 0.13922704067807953
000120 5c dc 9b 2b 9c 7f ba bf de 38 4a 01 db 86 dc bf
       -0.10350967468899469 -0.4457309258076644
000130 72 5a d0 47 61 0d cc 3f 28 35 62 0e a0 be d1 bf
       0.21915832525765527 -0.2772598400559496
000140 a3 72 ae a6 06 b8 f5 3f a0 13 a2 07 ac 99 eb 3f
       1.3574282179826376 0.8625087880214899
000150 d0 73 75 9c e9 d7 07 40 ea 22 67 ce 33 7c c6 bf
       2.980426046690333 -0.17566535547509626
000160 b3 47 42 88 7d 39 0b c0 5c ba d6 9d c9 d9 c1 bf
       -3.403071465037067 -0.1394588490197347
000170 a1 ad 4b a1 cf 3e f0 3f dc 84 96 86 f4 12 f5 bf
       1.0153347302064974 -1.3171277291624426
000180 fa 41 aa 50 df ae 03 40 49 83 27 7d e4 30 e3 bf
       2.460386877246717 -0.5997183269902077
000190 8a d3 c7 63 bf 36 a9 3f 53 50 59 75 ac 95 e1 3f
       0.0492458161642509 0.5495207111330366
0001a0 e0 5f 93 a0 2a ff 9d bf a2 0c 98 0a a3 5f e2 bf
       -0.029293695498239347 -0.5741744238770432
0001b0 2f 13 e2 65 1d c7 c4 3f bd 0b cb bf 55 1a 85 3f
       0.1623265025592899 0.010304136195719122
0001c0 5d 35 8b 21 d5 d4 c8 3f c3 6c c3 78 4d 64 b0 3f
       0.1939951337612155 0.06403049658131281
0001d0 b2 38 64 64 e8 ba c5 3f 57 58 0e ca 1e 17 cd bf
       0.1697664728348563 -0.2272680746652351
0001e0 e0 a4 fb ad 40 2d a4 bf d8 7c c9 c0 9e fe e1 3f
       -0.0394077503568242 0.5623315587398805
0001f0 aa 96 03 26 be d5 df 3f 48 e9 f6 58 89 1c e4 bf
       0.49742082321459213 -0.6284834611499628
000200 0c 1d 7c 77 c5 4d ec bf 94 05 00 58 36 e0 ea 3f
       -0.8844935735404831 0.8398696631194746
000210 cf 2e b2 81 5b 28 e1 bf 60 7e 3b 26 13 b8 dc bf
       -0.5361764462590716 -0.4487350343096974
000220 0f f0 26 af 9d 49 e0 3f c2 29 64 84 fc 87 fa bf
       0.5089863224925483 -1.658199803498619
000230 d6 3e 4d a7 7e 63 e1 bf 79 3c 0c d0 ce cd 05 40
       -0.5433953540432082 2.7254921201452444
000240 45 f3 1a 0a 95 75 d6 3f da 8a 45 63 66 13 bf bf
       0.3509266470608064 -0.12138976977943675
000250 1d d5 dc 0c 13 7d b3 bf 99 c5 66 46 c6 b6 d3 bf
       -0.07612723411587692 -0.3080306708826242
000260 d2 5b b0 61 57 cc 46 bf 17 a7 3a 22 48 e3 b9 bf
       -0.000695746104045431 -0.10112429462119753
000270 c1 e5 59 98 35 d8 a8 3f 3b fa 81 fa 3b 30 a7 bf
       0.048524546477846105 -0.04528987343745824
000280 2e cb 6f 07 81 55 81 3f 39 aa 6c 5c e1 7a 58 bf
       0.008463867225122348 -0.001494140700467951
000290 20 25 ef 21 a4 d1 a2 3f d9 9b 47 c9 29 96 ac bf
       0.036755684988359016 -0.055833154506948986
0002a0 81 b4 7e 26 11 b1 b3 3f 87 3c a5 51 9d aa eb bf
       0.07692057790582575 -0.8645769686353483
0002b0 0b a3 0d ee 3b 33 d9 3f 6b 83 7f 55 c2 04 c7 3f
       0.39375208136930046 0.1798327367278277
0002c0 fc f1 5a 24 6d e1 f3 bf 58 c6 a3 59 b2 6f c2 3f
       -1.2425357265593666 0.1440337121671742
0002d0 5c 41 93 4a c5 d5 ae bf d6 26 cc 15 01 29 d9 bf
       -0.0602246907743644 -0.39312770012530274
0002e0 bb bd 44 08 9d 7b a9 3f 0a b7 8c aa 22 68 ed bf
       0.04977122045454104 -0.9189618426368906
0002f0 63 97 6b de 9c 54 e4 bf a9 2d 6d 28 79 e6 f2 3f
       -0.635328707136733 1.1812678889426513
000300 c4 14 cb 20 cb 7a 9d bf 7f 1f 52 0a 6c ef b6 bf
       -0.02878873241094905 -0.08959079029057014
000310 1f 9b c0 2d c5 71 c1 bf 74 43 ba 01 b5 58 be 3f
       -0.1362844918632726 0.11854106228044065
000320 f6 1f a5 6a 00 bb c4 3f 3e 7b 58 1f de 6f a9 3f
       0.1619568367698318 0.049681607557650484
000330 47 0d c2 c3 9e f5 bd 3f e4 2b 56 5a fa c0 a9 bf
       0.11702911643265167 -0.050300429847162126
000340 a3 b2 9d 52 e3 3a c5 3f eb 4a 51 87 7f cf c0 bf
       0.1658596185110542 -0.1313323412637922
000350 ee f4 55 cf 1f 04 cd bf 54 b4 76 fb 12 8e a0 bf
       -0.22668836234871698 -0.03233393973946677
000360 7a 83 b2 7b c6 c5 e3 bf a3 3f 9a 86 35 de cb 3f
       -0.6178924957240348 0.21771878311528522
000370 6c e9 6a 51 7b c4 ce 3f 82 47 bf d1 fb 35 fc bf
       0.24037114596815046 -1.763179606747571
000380 61 3c d2 6f 24 ac d5 bf 12 03 4c 36 6f 78 e3 3f
       -0.338631734085487 0.6084514675604586
000390 90 f8 32 ca 70 8a c9 bf 47 e7 a9 89 d1 b5 c6 bf
       -0.19953737137797534 -0.17742366048679
0003a0 91 e9 32 42 11 22 df 3f 8c 2d b6 c2 2c 92 a4 3f
       0.48645431008085277 0.04017772557116492
0003b0 1e 7a a9 59 84 2a f2 bf cf 66 e2 bb 5b d0 ec 3f
       -1.1353801252768174 0.9004343671433278
0003c0 f3 2e e7 a8 05 f2 f5 bf a9 45 cf 32 c7 9f e4 bf
       -1.3715874288345133 -0.644504164922343
0003d0 57 5a dd fb b0 65 f7 3f 35 aa d6 d9 62 8f e1 3f
       1.462326988073661 0.5487531904848938
0003e0 85 43 6f e7 33 d3 d3 bf 91 15 23 a6 f0 57 f6 bf
       -0.3097657928565741 -1.39646973511967
0003f0 d6 e5 e9 f0 f1 8e f1 bf ad c9 8f e2 6b 47 f0 bf
       -1.0973987017335864 -1.0174368715348507
000400 37 97 49 71 68 04 e5 3f 2b 73 f1 c5 dc 9a ad 3f
       0.6567880833287977 0.057822131312354884
000410 49 b8 5e fa db 66 b1 bf 27 2b df b9 11 57 f4 bf
       -0.06797575819538894 -1.2712571392646141

Theta2 f8 [13, 1]
000000 a0 b0 71 95 69 8d f5 bf bb 5d 20 2a 5b ba e4 bf
       -1.3470245206508835 -0.6477485487729874
000010 48 5e 6b f2 e7 9d 23 40 5f f7 a9 cf b5 de ad 3f
       9.80841023979805 0.05833976898155301
000020 8e a2 af 11 30 ae f6 3f fa b7 2b a1 59 b5 e4 bf
       1.417526311002948 -0.6471374652735442
000030 33 3c dc 51 88 11 1f c0 49 6a ba 82 d0 99 23 c0
       -7.767121581141555 -9.800418935065993
000040 3c bb b3 10 7a 36 1f 40 49 33 6c 81 cb aa f5 3f
       7.803200016946729 1.354197984273201
000050 c0 9f cc d3 b8 89 f0 3f 17 f8 b4 a2 7e ba 06 c0
       1.0336235307131432 -2.841061850688685
000060 15 e5 03 dd d3 49 fd bf
       -1.8305243142515952
