Data/parameters.npz (npz, 2353 bytes, 2 tensors)

Theta1 f8 [11, 12]
0	0xc0167c5b9d20d03d	-5.621443228843472
1	0x3fcfdb7b56b7b567	0.24888555273302446
2	0xbfe05487ddcbce0d	-0.5103186923938111
3	0xbfc52e3334eb6408	-0.1654724129100773
4	0xbfb512bd5753b583	-0.08231719381338647
5	0xbfb7bf1cef650a98	-0.09275990337941165
6	0x401dd6330a2aff6c	7.459179076074957
7	0xbfa284d079e20606	-0.03616954315021918
8	0x3fd525b215657ce7	0.330425759215315
9	0xbfcd03927d326fd4	-0.22667151559005438
10	0xbfeaba1de272dace	-0.8352193281960696
11	0x4015c210724a6c36	5.439515863220597
12	0xbfe1070d52ca7952	-0.5321108452806504
13	0x3fe483ee6fc4dad7	0.6411049063670714
14	0xbfd3ede1111a0839	-0.3113939921387359
15	0x3ff174f543275cee	1.0910542128747767
16	0x3fe78ed9f7c8899f	0.7361879195707849
17	0x3fe2852ccdf6b173	0.5787567160346455
18	0xbfe879c9ff642c9d	-0.7648668277846756
19	0xbfec8b22d797ff88	-0.8919843874755182
20	0xbfe8d3062fc40390	-0.7757597859309602
21	0x3fd5c5f075475167	0.3402062554644289
22	0xbf987244d2abcc06	-0.02387340102991333
23	0x3ff2b4982c52896d	1.1690904361099357
24	0xbfcb92eb3ce0f289	-0.21542110893814861
25	0xc0113563414cd144	-4.302136440576138
26	0x3feca25860e2583f	0.8948175327557307
27	0x4009ee8c13741d43	3.241478111248996
28	0xbfde8438c94a7fe4	-0.47682017953229505
29	0x3fd379d32a821d97	0.3043105998153463
30	0x3fcea41d64288d82	0.23938338652179075
31	0xbfe03c6f32c5e79f	-0.5073772422467647
32	0xbfd634119f5eb333	-0.3469280296656507
33	0x3fc2e0839fe466ec	0.14747662837253672
34	0x3fd02db075ba2d44	0.2527886533432204
35	0x3fd7fe8d988fe044	0.37491168879160264
36	0x3fd45d9f3eb5e14d	0.31821423648900266
37	0x3fe2e96a7ba0d3e2	0.5909931578267982
38	0xbfe8cf236d04943c	-0.7752854470496753
39	0x3ff47466dd0805fe	1.2784184106861853
40	0x3fd639afc740ba7c	0.34727091272626587
41	0x3fe09c52a4e481d8	0.5190823765333858
42	0x3fd495847f453bde	0.3216258280635297
43	0xbfe4d95726e00138	-0.6515308150556285
44	0xbfe094c4371a2a45	-0.5181599689688673
45	0xbfcd72f03000fdfb	-0.23007013648928862
46	0xbfc8e6b5c589598a	-0.19454071183527005
47	0x3facf225d8da5ed7	0.05653494140750375
48	0xbfa7b9860c2bcb8e	-0.046337307916380785
49	0xbfc5a8ff2b3b4150	-0.16921987162505525
50	0x3fe89946d4534704	0.7687105319002687
51	0xbfaff0113eb95cd7	-0.06237844362902372
52	0x3fd42fd89c07888b	0.3154202960705638
53	0xbfc4068cae68ac84	-0.1564498759847518
54	0x3fb0533f88c2215a	0.06377026642633635
55	0x3fe76e43d5103acb	0.7322100793261027
56	0xbfc0b3058c8c2b33	-0.13046330797836844
57	0xbf895b7e8fdeef38	-0.012381542935933618
58	0x3fe09efb3c6ff754	0.5194069080750787
59	0x3f92b9c9783967ce	0.018286846125512395
60	0x3fe3e22774c03541	0.6213567047395047
61	0x3fe27e25d65014ec	0.5778989015385867
62	0x3fddce6f0cc2909a	0.46572471853347397
63	0x3fe9ea77f0d6e010	0.8098716453450852
64	0x3fe523272bf3f053	0.6605411394552995
65	0xbfc7f081e092dc70	-0.18702720132361916
66	0x3fc7d4b1a44a7992	0.18617840311067063
67	0xbfe09f67bd313e18	-0.5194586463130149
68	0xbfef0b4866d834b8	-0.970127297275801
69	0x3fe2370641db9507	0.5692168508800542
70	0xbfe54016a2f5552e	-0.6640732939510252
71	0xbfc41a614b871ad8	-0.15705505550268728
72	0xbfb5768725ba069d	-0.083839842520343
73	0xbfaa4fab16086d0e	-0.051389070930065825
74	0x3fda7b784502145a	0.413785998717065
75	0x3f95e51977067c07	0.02138175763104402
76	0xbfc0643c8ada4d00	-0.1280589750282175
77	0x3f87db802a53cdd2	0.011649133006790633
78	0x3f98b29501e3b27a	0.024118736496279138
79	0x3fe55f3a28bca187	0.6678744121209527
80	0x3f6d03b7b1e7a84c	0.003541811732465516
81	0xbfd0eb6f6996b4fd	-0.2643698245181694
82	0x3fec5f6635109b87	0.8866454159186653
83	0x3f63498682115c1c	0.00235439559086671
84	0xbfd709679c01d6e3	-0.3599490188129108
85	0xbfcc4bc8caed2b9a	-0.2210627547122755
86	0x3fe3e8b959a196ce	0.6221586943254012
87	0xbfcf404653e3cef9	-0.24414900871453663
88	0xbfd6c9ec28fb61c9	-0.35607437135834324
89	0x3ff2f8b097c09d63	1.1857152870014367
90	0x3fcdc84949aee1dd	0.2326747522145202
91	0x3fc4348f47930b6d	0.1578539943203298
92	0x3fd692003c8618f7	0.3526611891796984
93	0x3fbc655405527089	0.11092114572460522
94	0x3fe424d8f53234ef	0.6294979847895358
95	0xbfe147bff81fca29	-0.5400085302520142
96	0xbfb8351db276a2c6	-0.09456048590676422
97	0xbf66eb0bdc1370b8	-0.002797625697537578
98	0xbfb6aa8e04b002d9	-0.08853995909158686
99	0xbf9866438c9d3a32	-0.02382760568371562
100	0x3fe87b9096417014	0.7650835928611763
101	0x3fa0078b934f606d	0.031307565433679276
102	0x3fc3ec3109c96bd3	0.15564549425002258
103	0xbfe96fb5dd81c136	-0.7948865248018027
104	0xbfdea73bf98d1f1c	-0.4789571702026352
105	0xbfd70a8be810ab7f	-0.3600187078724772
106	0xbfcbdf40e5c5d84c	-0.21775065631271884
107	0x3fc132b992554a44	0.13436050076650663
108	0xbfd727e2af6c2546	-0.3618094170675089
109	0xbfdac5ee940ddd5b	-0.4183308072892566
110	0xbfe94f1dc2c37d10	-0.7909077457406131
111	0xbfd466a19cb13774	-0.3187641172597673
112	0xbff08cf92b09fca4	-1.0344173127375962
113	0x3fe9231aa6c55535	0.7855351693384934
114	0xbfd1e79797885da2	-0.2797602634249988
115	0xbfdb0d1c79356473	-0.4226752456357367
116	0xbfec8ca932e18cb3	-0.8921705240030832
117	0x3fe7f9ae00c75675	0.7492284789284002
118	0xbfd2c179e04deb4f	-0.2930588427040463
119	0x3fa6c2efb2786626	0.04445599607079158
120	0x3ff687d9e48c956e	1.4081667831136104
121	0xbffc31588011beca	-1.7620472910602296
122	0xbfd5860d6fc5e2a2	-0.3363069144757366
123	0xbffb0be315f595b6	-1.6904021127496498
124	0xbfa4e0c80b96f234	-0.04077744618868842
125	0xbfdc0d6c07a83764	-0.4383192133690186
126	0x3ff89b2573f5b54b	1.537877514808616
127	0xbfebae480aefcc98	-0.8650245870216109
128	0xbfb7b37073d3ee4a	-0.09258177593067632
129	0x3fd51727f8217aae	0.32953833800813015
130	0xbfdb0493eb41bdcc	-0.42215440725609876
131	0xbfee00e0fb739517	-0.9376072798883425

Theta2 f8 [13, 1]
0	0x400b27e4dcd0a922	3.3944794894388375
1	0xc00c87af445be3b4	-3.566252264074558
2	0xbfd066565df365d7	-0.25624617743377825
3	0xc00ae82deaaaa9a7	-3.3633688290912747
4	0xbfdc1dcf705814f9	-0.43931947680569255
5	0xc00226c19e1eec77	-2.268923983877865
6	0x4018a64d77b455b8	6.162404890424504
7	0xbf85765764609bde	-0.010479624510550008
8	0x3fed0b77a6fd120e	0.9076498280997514
9	0xbff74a9c7ee54b75	-1.4557156521666148
10	0xbfd1b58cf370418e	-0.27670596860209506
11	0xc00cb03224612561	-3.586033138479863
12	0xbff1f451d1cbc902	-1.122148341670766
