Data/parameters_best.npz (npz, 2353 bytes, 2 tensors)

Theta1 f8 [11, 12]
0.5483075443749523 0.8364687384924225 0.6693289427342357 0.5517471759083379 -0.9851313399273323 -0.6304254950136923 0.6000171253395357 0.09814126628408903
-0.5003599694036935 0.0713855378957935 -0.7060189166871371 0.8552949927212488 0.8957035958633217 -0.4174274484167513 0.916862215047316 -0.2325292285380096
0.5080875872675077 0.9861495803342868 0.7859285636112607 -0.008190960733143404 0.30919044626887526 0.4321159775467518 -0.7621345987331607 -0.6578807030172731
0.23789475323323073 0.9614736503659718 0.9010310085452287 -0.6392906372611549 0.7936940691180763 0.3863834084707105 -0.17263021015349178 -0.07663647678837293
0.9272412472564486 -0.04719862615218329 0.5725195245274206 -0.9547706260370716 -0.7536891172948321 0.5967920092937042 -0.38454362913633444 0.9321906130113717
-0.9301220948986804 -0.5224294748365235 0.9766694380444376 -0.7126711482930081 -0.23996410683882918 -0.6582817812126198 0.42359580969495236 0.26387027525313766
-0.8210897651907592 0.2283203383765975 0.24619265435154358 0.07042949884412986 0.9028197536812834 0.40869172355360495 -0.8055689392172449 -0.24178075350382944
0.10622697563667516 0.5373844943955186 0.225339211314187 0.6620752615492924 0.24617820619590813 -0.2290795827132166 -0.25723786717920105 -0.5560675970681328
0.2710540524813465 0.6548184855582757 0.4123511706374119 -0.32715306810483447 -0.29866976897802266 0.8251905174206149 -0.14379234305741506 0.5842598517494559
-0.36507862287732795 0.5379605009601685 0.6126064704444336 0.5911466192422485 0.8007119244299241 -0.2574357034782726 -0.7903750530030287 0.5644695825173756
-0.6993344612254546 0.17332979355912803 0.5939535557405962 -0.1399937825866051 -0.6851823088664319 0.5062392677351077 0.23705447243808786 -0.24739881336320702
0.8442294925493767 0.39216860017135 -0.48706494607191786 -0.9553939275331411 -0.17099066619091552 0.7153618819273131 0.9755573283306205 0.741816353808892
0.2628088121887695 -0.427487698232919 0.011808503136584214 -0.9794423673330064 0.8325808772499175 0.20385735513588332 0.5509857713385802 -0.8391662505202941
0.9611026158997698 0.5026009927571862 -0.6662142244606857 -0.7770236629806495 0.06862478461874422 0.6615234612973064 0.0422907541313966 -0.3890928677406531
0.6690231606886601 -0.5308642931639946 -0.8610301007463628 0.8951527318123462 -0.2703762100826905 -0.6606262269418335 -0.4362061756229465 0.6783412852940378
-0.5541189289280459 0.9991871988545125 -0.03287389720383849 -0.4185533593698867 -0.5306275477604081 -0.5204714496683218 -0.159286381537598 -0.5600308190938661
0.4016075906164429 -0.6645736815524659 -0.22498561068199008 -0.14457377353251033
00000000: 16b2 6743 bc8b e13f 4e71 7e16 5ac4 ea3f
00000010: e0e9 e987 246b e53f 34f9 85b1 e9a7 e13f
00000020: e614 e828 3286 efbf dabf 7416 722c e4bf
00000030: 92f1 4b1d 5733 e33f 4004 1439 c91f b93f
00000040: 2620 1ae9 f202 e0bf 2078 ab96 5246 b23f
00000050: 50ea b0fb b497 e6bf 4673 c59a 935e eb3f
00000060: ea8f 6496 9aa9 ec3f 68c5 d99d 21b7 dabf
00000070: 781f 926d ef56 ed3f 88a9 f78b 84c3 cdbf
00000080: e428 5ae6 4042 e03f 12ff 8f90 898e ef3f
00000090: de7b b6a8 5326 e93f 80fb c523 6cc6 80bf
000000a0: 4078 bdb9 c6c9 d33f 941c e9c5 c9a7 db3f
000000b0: 32b0 1619 6863 e8bf 1e1e 04d5 5b0d e5bf
000000c0: 706b 83d4 5573 ce3f ea33 8963 64c4 ee3f
000000d0: e446 4cfb 3ed5 ec3f 009f 75a3 1175 e4bf
000000e0: 8a85 bc1a f165 e93f 4851 c679 81ba d83f
000000f0: e096 7429 bf18 c6bf 009a 7cb9 729e b3bf
00000100: 90ff 0ed6 f5ab ed3f 80c1 7a17 6b2a a8bf
00000110: f255 4577 1452 e23f 6657 c020 7b8d eebf
00000120: b83c c4a3 381e e8bf 60c7 4d8e eb18 e33f
00000130: 38a5 c1e1 5c9c d8bf 80b4 9068 81d4 ed3f
00000140: 140f 5c69 8fc3 edbf 5675 9c04 beb7 e0bf
00000150: f2e9 ec43 e040 ef3f 5e14 57b9 33ce e6bf
00000160: 6816 8bd3 24b7 cebf ea8b 3bf4 a410 e5bf
00000170: 8c32 5799 311c db3f d451 a626 40e3 d03f
00000180: 5e63 120b 5e46 eabf f068 2bd1 9939 cd3f
00000190: a847 7aab 3d83 cf3f a08e 35ea aa07 b23f
000001a0: eecd 8740 e6e3 ec3f 34c0 b354 0128 da3f
000001b0: 3c91 1383 38c7 e9bf a0f3 8cf6 abf2 cebf
000001c0: 9000 50ea b031 bb3f c8cc 99f7 4032 e13f
000001d0: 30e9 8c4f ead7 cc3f 1209 7b75 b82f e53f
000001e0: 28b8 4c78 c482 cf3f b8a0 f7d1 7a52 cdbf
000001f0: 1cf5 b4d0 9576 d0bf e4bb f845 4ecb e1bf
00000200: fcc2 b618 f358 d13f d63f 89e5 45f4 e43f
00000210: 50b8 162a f663 da3f fcf6 126c 13f0 d4bf
00000220: 7c20 84ce 671d d3bf b84e a9f1 f567 ea3f
00000230: 4864 6c99 c967 c2bf ae26 74b7 41b2 e23f
00000240: 9084 6eba 725d d7bf 083d c5f0 f836 e13f
00000250: 040f 7ce2 789a e33f 5e2a 9950 acea e23f
00000260: 2e33 1e9d 6e9f e93f 88c3 d099 d379 d0bf
00000270: e01c 879f c04a e9bf 00f7 8f83 2210 e23f
00000280: 40bb fda9 f260 e6bf 3023 61b1 ab2f c63f
00000290: f4f5 27e3 aa01 e33f a828 edf6 50eb c1bf
000002a0: 8e21 0c73 03ed e5bf e0f1 5bb1 1c33 e03f
000002b0: d0fd 3e0b cd57 ce3f 506a 3baa c3aa cfbf
000002c0: 182f 9a91 ed03 eb3f 5442 1054 4a19 d93f
000002d0: 800a 9a73 122c dfbf a2a8 3149 9692 eebf
000002e0: c009 9bab 05e3 c5bf b0d9 f599 3ee4 e63f
000002f0: 66b3 9100 c437 ef3f b4e8 67a6 f5bc e73f
00000300: 44e3 5c0d dcd1 d03f b492 d65c f55b dbbf
00000310: 006e 4a76 0e2f 883f f862 0085 9757 efbf
00000320: 4207 e2a6 80a4 ea3f 58c8 ad70 ff17 ca3f
00000330: b6bc 8ee9 aca1 e13f 0a88 3c2e 73da eabf
00000340: 4877 ec45 5ac1 ee3f 3289 5aad 4e15 e03f
00000350: 6809 467e a051 e5bf 5e0a 97ba 60dd e8bf
00000360: d0ee a1d5 6491 b13f 7ce0 f93f 332b e53f
00000370: e0c5 d53b 22a7 a53f ac63 83c5 e5e6 d8bf
00000380: 4294 6d42 a368 e53f c81c 381d d7fc e0bf
00000390: 8878 72ff 8e8d ebbf 08e4 8157 17a5 ec3f
000003a0: 30fb fa04 d84d d1bf a40a f39c d923 e5bf
000003b0: 4c48 a74e cdea dbbf f8a9 7bc8 f8b4 e53f
000003c0: 6ce5 ba9e 57bb e1bf f02e b56e 57f9 ef3f
000003d0: e0dd c3f2 d8d4 a0bf 6cf9 8707 94c9 dabf
000003e0: ac9a 7f9f e6fa e0bf 0878 dabd b3a7 e0bf
000003f0: 087a b303 7f63 c4bf f253 98c0 c5eb e1bf
00000400: 7c78 e152 f0b3 d93f e89a 8106 3044 e5bf
00000410: f090 f917 54cc ccbf 8039 97b6 6481 c2bf

Theta2 f8 [13, 1]
-0.7784523900531504 -0.5308640948496708 0.2706497226171056 0.1729126411448978 -0.26424557073375765 -0.7009569015088417 -0.7871327003532873 0.43300906824597685
-0.2584667793074573 0.5587452597035969 0.0694579442253882 -0.28732397205089755 0.3945356101123416
00000000: a0ae 98fc 14e9 e8bf d2ff bfb2 d6fc e0bf
00000010: d4f6 d336 5352 d13f 1023 645d 0022 c63f
00000020: 9c84 1a41 66e9 d0bf da59 fc2a 3d6e e6bf
00000030: 2a25 b4ea 3030 e9bf cc39 bfaa 6bb6 db3f
00000040: 3497 0e3f b88a d0bf 6c1a 27bd 3de1 e13f
00000050: 303b e5ee fec7 b13f e42f d415 8463 d2bf
00000060: f48d a249 1240 d93f
