Data/parameters_best.npz (npz, 2353 bytes, 2 tensors)

Theta1 f8 [11, 12]
000000 02 0d fd eb 58 6d 13 c0 7d c3 9c 53 f4 40 ec 3f
       -4.856784522361751 0.8829290040067544
000010 a4 18 7d c9 55 62 e0 bf d7 3f c0 0a fc 80 de bf
       -0.5120037970853173 -0.4766225914945585
000020 f6 cd f3 a8 2d 6e ac bf 8d 98 6d c5 00 df be bf
       -0.05552809417158848 -0.12059025592825119
000030 53 6e 01 48 b6 38 1a 40 c0 24 1e 68 1c 23 a2 bf
       6.555382847869242 -0.03542412539452178
000040 b7 0b a8 8b da 88 d3 3f 75 1b fb 79 47 7b c8 bf
       0.30522788656542893 -0.1912621827707103
000050 0c c0 02 94 68 96 ea bf 7a 82 48 7e ff 88 12 40
       -0.8308604136309454 4.633787129569663
000060 7c 0c 55 ba 98 99 e5 bf 1d c0 79 a7 25 1e e5 3f
       -0.6749995841313559 0.6599300642974445
000070 b3 a4 58 7f df 55 d3 bf 42 55 f4 64 72 c3 f3 3f
       -0.3021162742248393 1.2352165168316138
000080 13 05 8f a2 0a f1 e7 3f b8 7c ca 37 5c fa e5 3f
       0.7481740164732024 0.686811551062326
000090 f0 31 69 72 f6 2b f1 bf b8 53 33 94 53 7a ec bf
       -1.0732330769707197 -0.8899324316540662
0000a0 90 8f e5 2c f9 54 ea bf a4 c2 0a 65 23 1b d9 3f
       -0.8228727223290537 0.3922813879717444
0000b0 01 b1 5c a9 f1 91 8b bf a4 de 47 d4 63 51 f5 3f
       -0.013461959820766813 1.3323705951897091
0000c0 2f ff 06 29 46 4e c2 bf dd ce 49 f5 78 7d 0a c0
       -0.14301373484885846 -3.311265865626281
0000d0 07 77 67 08 01 24 eb 3f 0c 81 dd 05 f7 f4 00 40
       0.848145023741126 2.119611783811825
0000e0 c1 9f 28 f8 0f d5 df bf ad 5d df 3e 2d 16 cf 3f
       -0.4973792956757244 0.24286428041407984
0000f0 77 52 77 6e 91 a3 d8 3f 53 82 50 f8 76 55 e0 bf
       0.3849834040422943 -0.5104327058689456
000100 68 00 22 31 be de d2 bf 22 db aa 28 61 ad b6 3f
       -0.2948451499760325 0.08858306162697407
000110 02 78 dc 35 ea 2a cb 3f 6e 13 00 33 09 de e0 3f
       0.21224715833608349 0.5271039959048787
000120 83 f8 df f1 27 5f c6 3f 7f fb 48 ae c0 40 db 3f
       0.17477893171593814 0.42582718868282393
000130 98 04 0a 24 f4 b0 e8 bf c3 6d a4 f6 cc dd f4 3f
       -0.7716007903947171 1.3041505464997136
000140 6d e7 34 0c 20 f6 d5 3f 9b 86 c1 9b e3 e9 e0 3f
       0.3431472892003658 0.5285509149654958
000150 f6 3b 5d d5 6f 25 c3 3f df ef d9 5f c1 c5 e4 bf
       0.1495799819772114 -0.6491400596710227
000160 d3 71 98 4a 86 eb e0 bf 35 d1 37 2b 9d a9 ce bf
       -0.5287505585616209 -0.23955120668655075
000170 1a 34 b6 92 8b e6 c8 bf 86 a7 70 0c 4d bc cb 3f
       -0.19453568137797178 0.216683989595648
000180 f9 12 80 7e 32 30 5b bf b1 71 01 98 2d 55 be 3f
       -0.001659440336880978 0.11848721467089864
000190 48 a1 95 7d 27 0c e9 3f 4f c4 4d 05 96 cb ce bf
       0.7827336743185151 -0.2405879522225711
0001a0 f4 1b 9e db a5 d6 d5 3f 6e 2c 17 e2 59 a9 c5 bf
       0.3412260670378935 -0.1692306856114984
0001b0 b7 b9 f2 e1 85 02 9b 3f 72 48 0f 36 b7 7d e7 3f
       0.026376811900883115 0.7340961509564876
0001c0 67 4c 8c 32 35 d1 c6 bf f6 86 fe 4a aa e6 a5 3f
       -0.17825951545873694 0.04277546086747279
0001d0 5f 8c 7a a7 00 43 e1 3f 9e 00 10 e7 36 f5 a3 bf
       0.5394290228908963 -0.03898021288478158
0001e0 7f 01 51 ec 10 3c e4 3f 61 79 ca ef 98 0c e1 3f
       0.6323322883181816 0.5327877696434308
0001f0 22 34 ec fe 93 38 df 3f 28 76 56 7f 18 b2 eb 3f
       0.48782825369636573 0.8654901969018214
000200 31 a7 ec 4a de 1c e6 3f 88 06 a2 49 96 50 bc bf
       0.69102396615674 -0.11060466096571464
000210 4f a7 8f 83 d3 bf bb 3f 64 02 ee dd 97 71 e0 bf
       0.10839578592245157 -0.5138663610997125
000220 ad d3 cc 67 dd e3 ef bf 00 0d c0 b0 c9 fb e2 3f
       -0.9965655352922248 0.5932358219291984
000230 bc b3 6c 66 e9 ab e4 bf ca b8 75 3b 18 91 ca bf
       -0.6459853172760783 -0.20755293753922494
000240 bc 37 85 0e 25 96 b3 bf b4 ab 99 4d 98 47 a4 3f
       -0.0765097771120215 0.03960872599858281
000250 04 f6 9b 50 c7 ae da 3f 5e 65 32 bc 09 ae 8c bf
       0.41691763755793 -0.014003826194584231
000260 c8 0e 8c ac eb bd c1 bf 20 57 60 fa 19 be 8b 3f
       -0.1386084167971744 0.01354618354165954
000270 84 d5 18 12 1a d6 b0 3f ad bd e7 ff f3 79 e5 3f
       0.06576693479367718 0.6711368559025935
000280 a0 4f e6 9f 6a c3 4d 3f 47 6e fa ed b1 c6 d3 bf
       0.0009083052280396305 -0.309002382660513
000290 1c 3a 32 9d 6d 99 ec 3f 7c 71 1e 51 7d f1 a6 bf
       0.893729025863482 -0.04481116881581479
0002a0 2d fb c1 41 30 0a db bf 7e bd b0 92 2a 1e c8 bf
       -0.42249685689596356 -0.18842060244194764
0002b0 c5 da 27 88 2b e1 e4 3f 0a 73 3d d2 23 ce d4 bf
       0.6524865779200232 -0.32508178263906073
0002c0 dc f2 27 55 47 6b d3 bf 6a 1d c5 7a d7 e2 f4 3f
       -0.30342276874561747 1.305381278581843
0002d0 70 72 df 96 77 ff d2 3f 8e 55 e4 87 79 44 c5 3f
       0.2968424771659448 0.16615218291614692
0002e0 bd 35 01 b3 c3 60 d4 3f 18 2e 58 ba ab dc c3 3f
       0.3184060333340673 0.1551718387494112
0002f0 22 01 13 e9 f9 f7 e4 3f 41 74 8b 28 9e 6a e1 bf
       0.6552705337744877 -0.5442648689164643
000300 54 94 fc 14 99 74 c0 3f 66 c3 48 30 a9 23 d3 bf
       0.12855828785646628 -0.299051568176813
000310 2b 12 bb 67 fc ab b7 bf 47 9a d7 c5 a8 17 ae 3f
       -0.09246804745186725 0.058774255896243015
000320 5e 8f d4 a4 a2 65 e8 3f 96 06 e8 af c6 56 ab 3f
       0.7624066562025111 0.05339642426771467
000330 0f 57 b7 64 60 77 bb bf 0b 94 30 58 b7 86 e9 bf
       -0.10729029139414713 -0.7976948473411779
000340 7e 81 52 55 f2 f5 df bf 67 d1 45 9b 54 7b da bf
       -0.4993863900399659 -0.4137774959883899
000350 0d a5 f7 9a 83 a3 cc bf 8d 34 ed a1 97 ec a0 bf
       -0.22374005381360754 -0.03305505611079083
000360 55 8a 0f 40 42 14 d4 bf 41 db 5c da 51 64 d8 bf
       -0.313736498412401 -0.38112303089603833
000370 04 71 30 2f b3 04 e8 bf 30 55 67 f4 8d 85 db bf
       -0.7505737229980984 -0.43002652041953393
000380 66 68 7c 1f 58 fa ee bf 8f 47 6a 6a 92 b0 ec 3f
       -0.9680595984421074 0.8965541914387688
000390 0c aa d7 e1 7d 04 cd bf 6d e5 b2 15 43 4a da bf
       -0.22669957663977447 -0.41078259581589444
0003a0 9a 45 43 d7 a9 8d ed bf fe bc 08 4d df c8 e9 3f
       -0.9235429005004108 0.8057705406735349
0003b0 23 6c 12 3e 93 77 d0 bf f9 51 8d 81 ff bc ad bf
       -0.2572982889338979 -0.05808256584592537
0003c0 b2 5d 44 05 63 e5 f9 3f 7a f1 04 2b ad e7 fc bf
       1.618502636503632 -1.8065616302911551
0003d0 b6 f6 5c c9 06 e3 d1 bf 69 c5 13 25 ed 23 fa bf
       -0.27948159851426213 -1.6337710808114372
0003e0 ae 17 d5 60 df 4a ab 3f d2 8c dc d4 d7 87 d3 bf
       0.0533056073859791 -0.30516620433099917
0003f0 27 9f c5 b4 62 c5 fc 3f 11 fa e3 a8 12 42 eb bf
       1.7981898366360356 -0.8518155382769824
000400 14 06 c6 04 57 0d c0 bf 23 be 57 d1 a4 57 d9 3f
       -0.12540710194666416 0.3959743542063469
000410 f8 a3 78 05 5b 11 d8 bf 64 a4 93 bc f8 6d f2 bf
       -0.3760592988424487 -1.151848541858521

Theta2 f8 [13, 1]
000000 8a fa 2a 1f 09 fd 07 40 be ce 8f c0 8b 04 08 c0
       2.9985525546065377 -3.002219681156787
000010 02 2c fe 69 e9 e9 cb bf 70 e1 3c 00 f1 1b 06 c0
       -0.2180759208243615 -2.763643266542367
000020 6c be 0f 58 6d 21 e2 bf 10 94 08 93 aa ca 03 c0
       -0.5665804595900688 -2.4739581572525893
000030 92 8d 0b a8 fe 02 17 40 cd 54 37 6b 46 00 a3 bf
       5.752924562173023 -0.037111473644168315
000040 be 73 fa 5e 68 ad ec 3f e5 c2 f8 54 73 45 fa bf
       0.8961679320378761 -1.6419556922157252
000050 91 2c b8 e0 97 9d d4 bf a4 1b 68 6f 30 86 0b c0
       -0.3221187300229725 -3.440522070278762
000060 9e de 5e df 3d ce f4 bf
       -1.3003519750035717
